models/mlp_torch.pth (torch, 2528 bytes, 4 tensors)

input_fc.weight f4 [16, 2]
-0.47261602 -0.66333485 0.21111609 0.20424858 -0.4492394 -0.26982772 -0.49169016 0.0021041173
-0.60234606 0.9081702 0.57521725 0.007669246 -0.49139518 -0.5551624 -0.13555044 -0.25992745
0.6915428 -0.6210175 0.6932086 -0.66122484 0.71335274 0.12185722 0.5799215 0.34847212
0.10849267 0.20564367 0.6573075 0.55725884 0.5483824 -0.7105605 0.582115 0.45121482
00000000: bafa f1be 50d0 29bf d12e 583e 8a26 513e
00000010: b502 e6be dc26 8abe d0be fbbe 3be5 093b
00000020: 5a33 1abf d87d 683f 7041 133f 4c4e fb3b
00000030: 2698 fbbe 1f1f 0ebf bccd 0abe 3615 85be
00000040: f308 313f 01fb 1ebf 1e76 313f 0846 29bf
00000050: 499e 363f 4790 f93d bc75 143f f06a b23e
00000060: 6831 de3d 4194 523e 4e45 283f 84a8 0e3f
00000070: ca62 0c3f 4be7 35bf 7d05 153f a105 e73e

input_fc.bias f4 [16]
0.2078028 0.009189711 0.21191578 0.5758631 -0.09809904 -0.35632586 -0.13401003 -0.40130773
0.040042344 -0.34021285 -0.30562058 0.3952858 0.79158276 0.023073379 -0.1876284 -0.11149537
00000000: 42ca 543e 7190 163c 7300 593e c46b 133f
00000010: 26e8 c8bd 5870 b6be ed39 09be 3578 cdbe
00000020: 7103 243d 6130 aebe 4d7a 9cbe e662 ca3e
00000030: 2ba5 4a3f 6204 bd3c a921 40be af57 e4bd

output_fc.weight f4 [3, 16]
0.66963255 0.025183449 0.085647695 -0.03708405 -0.1900152 0.16251057 0.5408712 0.11753786
-0.30034542 -0.39827377 0.2632709 0.3413567 -0.29688707 0.5662237 -0.11685269 0.3265088
-0.37732866 -0.21754591 -0.18876284 0.13115947 0.89878756 0.10737214 -0.36929992 -0.15517569
0.46209577 0.46587777 -0.002135747 -0.24732123 -0.041115392 -0.3885742 0.5176183 -0.4108796
-0.044737484 -0.23519804 -0.31261763 -0.04677385 -0.48086107 -0.20273219 -0.21066855 0.084395885
-0.12727353 0.012669566 -0.37396267 0.10340111 0.46768332 -0.14594749 -0.4762749 -0.3455888
00000000: 0a6d 2b3f 854d ce3c 0f68 af3d 72e5 17bd
00000010: 5893 42be 2c69 263e 8976 0a3f b1b7 f03d
00000020: e0c6 99be 8aea cbbe 72cb 863e 4ec6 ae3e
00000030: 9501 98be 09f4 103f 7750 efbd 292c a73e
00000040: 3931 c1be 5bc4 5ebe 0c4b 41be ab4e 063e
00000050: f116 663f ede5 db3d e114 bdbe 60e6 1ebe
00000060: d197 ec3e 8887 ee3e e4f7 0bbb c741 7dbe
00000070: 9d68 28bd 33f3 c6be a282 043f d05e d2be
00000080: a73e 37bd c1d7 70be 6b0f a0be f095 3fbd
00000090: 6c33 f6be 0799 4fbe 7fb9 57be c0d7 ac3d
000000a0: fe53 02be 0394 4f3c 0978 bfbe f6c3 d33d
000000b0: 3074 ef3e 4273 15be 4eda f3be 04f1 b0be

output_fc.bias f4 [3]
-0.31358933 -0.08456248 0.55222875
00000000: c88e a0be 182f adbd dd5e 0d3f
