models/mlp_torch.pth (torch, 1823 bytes, 4 tensors)

input_fc.weight f4 [16, 2]
-0.47261602 -0.6633349 0.21111603 0.20424859 -0.4492394 -0.26982775 -0.4916901 0.0021041438
-0.602346 0.9081702 0.57521725 0.007669216 -0.49139518 -0.5551624 -0.13555044 -0.25992745
0.6915428 -0.6210175 0.6932086 -0.6612248 0.71335274 0.12185723 0.5799215 0.3484721
0.10849268 0.20564367 0.6573075 0.55725884 0.5483824 -0.7105605 0.582115 0.45121482
00000000: bafa f1be 51d0 29bf cd2e 583e 8b26 513e
00000010: b502 e6be dd26 8abe cebe fbbe ade5 093b
00000020: 5933 1abf d87d 683f 7041 133f 0c4e fb3b
00000030: 2698 fbbe 1f1f 0ebf bccd 0abe 3615 85be
00000040: f308 313f 01fb 1ebf 1e76 313f 0746 29bf
00000050: 499e 363f 4990 f93d bc75 143f ef6a b23e
00000060: 6931 de3d 4194 523e 4e45 283f 84a8 0e3f
00000070: ca62 0c3f 4be7 35bf 7d05 153f a105 e73e

input_fc.bias f4 [16]
0.2078028 0.009189709 0.21191575 0.5758631 -0.09809902 -0.35632586 -0.13401003 -0.40130773
0.040042337 -0.34021282 -0.3056206 0.3952858 0.7915827 0.023073379 -0.18762842 -0.11149538
00000000: 42ca 543e 6f90 163c 7100 593e c46b 133f
00000010: 24e8 c8bd 5870 b6be ed39 09be 3578 cdbe
00000020: 6f03 243d 6030 aebe 4e7a 9cbe e662 ca3e
00000030: 2aa5 4a3f 6204 bd3c aa21 40be b157 e4bd

output_fc.weight f4 [3, 16]
0.6696326 0.025183417 0.085647695 -0.037084073 -0.1900152 0.16251054 0.5408712 0.11753786
-0.30034545 -0.39827374 0.26327094 0.34135666 -0.29688707 0.56622374 -0.116852686 0.32650885
-0.3773287 -0.21754585 -0.18876284 0.13115951 0.8987875 0.10737216 -0.3692999 -0.15517569
0.46209577 0.4658778 -0.0021357564 -0.24732125 -0.04111533 -0.38857424 0.51761836 -0.41087958
-0.044737455 -0.23519805 -0.31261763 -0.04677387 -0.48086116 -0.20273219 -0.21066853 0.084395885
-0.12727356 0.01266957 -0.37396267 0.10340112 0.46768332 -0.14594746 -0.4762749 -0.34558874
00000000: 0b6d 2b3f 744d ce3c 0f68 af3d 78e5 17bd
00000010: 5893 42be 2a69 263e 8976 0a3f b1b7 f03d
00000020: e1c6 99be 89ea cbbe 73cb 863e 4dc6 ae3e
00000030: 9501 98be 0af4 103f 7650 efbd 2b2c a73e
00000040: 3a31 c1be 57c4 5ebe 0c4b 41be ae4e 063e
00000050: f016 663f efe5 db3d e014 bdbe 60e6 1ebe
00000060: d197 ec3e 8987 ee3e 0cf8 0bbb c841 7dbe
00000070: 8c68 28bd 34f3 c6be a382 043f cf5e d2be
00000080: 9f3e 37bd c2d7 70be 6b0f a0be f595 3fbd
00000090: 6f33 f6be 0799 4fbe 7eb9 57be c0d7 ac3d
000000a0: 0054 02be 0794 4f3c 0978 bfbe f7c3 d33d
000000b0: 3074 ef3e 4073 15be 4eda f3be 02f1 b0be

output_fc.bias f4 [3]
-0.31358933 -0.08456243 0.55222875
00000000: c88e a0be 112f adbd dd5e 0d3f
